net_model.pkl (torch, 516687 bytes, 8 tensors)

weight f4 [16, 1, 4, 4]
0.004485203 0.22087346 -0.09973492 -0.049749848 0.11599569 -0.2482809 -0.16260712 0.15381359
-0.18221772 0.040575434 0.20016846 -0.05836394 -0.06418666 0.2234455 0.170349 0.20499174
-0.14256014 -0.20356642 0.19165671 0.08991301 0.22635582 0.11075751 -0.19999024 0.11843983
0.08635921 -0.18521966 -0.22800086 0.08807854 -0.017836522 0.04558415 -0.2120947 0.10251891
-0.13756989 -0.17446095 -0.14402118 -0.111357115 -0.07995751 0.009861037 0.019118125 0.2078162
0.20603643 -0.026491582 -0.09647424 -0.19783442 0.18171729 0.132666 -0.0018701098 0.13214432
-0.15278882 -0.08697096 -0.054292474 0.11485005 -0.03623126 0.08505509 0.10870652 -0.13066955
-0.16073212 0.22784097 -0.22596934 -0.13920818 -0.12873656 0.10978333 0.050545294 0.23629852
-0.2067716 -0.17432867 0.16132036 0.2360167 -0.09475931 0.21232542 0.12582637 0.17289393
-0.16843662 -0.092279665 0.06806279 -0.030007215 0.089704454 -0.16156949 -0.16004606 0.057965457
0.14208862 -0.022805052 0.1463379 -0.14045392 -0.19722189 0.16908005 -0.10692527 -0.20839795
0.14788847 -0.05638677 -0.038723323 -0.24173002 -0.08026585 -0.21859442 0.11338199 0.18075489
0.039558675 -0.046211645 -0.021444358 0.06122853 0.18136829 -0.14721376 -0.0013252752 -0.22252946
-0.0064305775 -0.05594029 0.012925199 -0.05509273 -0.08686563 -0.09756916 0.20557989 -0.14553967
-0.13083856 0.12233706 -0.23669197 -0.17870757 -0.1624894 0.02519078 0.19196118 -0.08916159
0.10578075 0.09955671 0.16635682 0.21664296 0.18244928 0.05145247 0.064069144 -0.1026328
0.13358405 -0.17253491 -0.08862094 0.059993524 -0.18542677 0.2167552 0.15462863 0.12714317
0.17537051 0.059589133 0.09967953 0.1783379 0.19161719 -0.18576136 0.22737679 0.17824836
-0.048147485 0.093717635 0.1465757 0.11036249 0.14017962 0.0064199264 -0.052739203 0.1403841
0.2045949 0.19584543 -0.23824081 0.19739491 0.22869563 -0.06323012 0.08843569 -0.027341291
0.078422695 0.19951344 0.0064241434 0.2092473 -0.17029113 0.19846714 0.06867844 -0.24289535
-0.0851756 0.15454277 0.18326686 0.11075418 0.13922465 0.24325594 0.02241939 -0.17950948
0.14036341 0.02889483 0.060665347 -0.16336392 0.034189414 -0.21094958 -0.2485858 0.07843157
-0.16212748 -0.16338445 -0.12903106 -0.1066604 -0.18346296 -0.09362526 -0.069402926 -0.17792377
-0.18963924 -0.0014964093 -0.06153945 -0.14218242 -0.14319278 -0.15002581 -0.1639044 -0.10472948
-0.17944813 0.07772584 -0.00050710974 -0.21121119 -0.05208411 0.22810958 -0.045969978 -0.025337374
0.2037794 0.12849286 -0.18694977 0.006071915 0.010108309 0.007202686 0.1862909 0.1868615
-0.22995888 0.15393104 0.06694226 -0.22873764 -0.08901101 -0.061708953 -0.03556593 -0.087713994
-0.20269975 -0.2512895 -0.11873949 -0.09607832 -0.13257858 0.19249669 0.0052876663 -0.24727973
0.02173996 0.08748297 0.21974921 -0.17720857 -0.23785883 0.1773329 0.21552694 0.09988813
-0.08420832 -0.18755111 -0.12652944 0.041348904 0.0033974312 0.009920633 -0.040809967 -0.034063734
-0.11533942 0.06638359 0.13761064 -0.22382742 -0.21355909 -0.14125937 0.11032542 0.010891182
00000000: 9cf8 923b a72c 623e d241 ccbd 7fc6 4bbd
00000010: 268f ed3d 593d 7ebe 7b82 26be 4f81 1d3e
00000020: 4897 3abe 6d32 263d f6f8 4c3e 070f 6fbd
00000030: 4c74 83bd e6ce 643e f86f 2e3e 5be9 513e
00000040: 49fb 11be b773 50be a841 443e 5024 b83d
00000050: d2c9 673e d5d4 e23d 3eca 4cbe 9590 f23d
00000060: 19dd b03d 39aa 3dbe 0f79 69be 8662 b43d
00000070: e61d 92bc 72b6 3a3d 5a2f 59be 6ff5 d13d
00000080: 1fdf 0cbe e4a5 32be 4a7a 13be 330f e4bd
00000090: c3c0 a3bd 3090 213c 9d9d 9c3c c5cd 543e
000000a0: 37fb 523e e004 d9bc 4994 c5bd 1b95 4abe
000000b0: 1914 3a3e 99d9 073e 791e f5ba d750 073e
000000c0: ac74 1cbe d51d b2bd c961 5ebd 8136 eb3d
000000d0: 3b67 14bd 5d31 ae3d 86a1 de3d 3dce 05be
000000e0: f696 24be 254f 693e 8264 67be 978c 0ebe
000000f0: 84d3 03be 15d6 e03d 9508 4f3d 3df8 713e
00000100: efbb 53be 3783 32be 2a31 253e 5dae 713e
00000110: 2b11 c2bd d66b 593e a1d8 003e 1b0b 313e
00000120: a67a 2cbe 1ffd bcbd 8164 8b3d b1d1 f5bc
00000130: f8b6 b73d 7972 25be 1de3 23be 306d 6d3d
00000140: ae7f 113e a9d1 babc 9ad9 153e 27d3 0fbe
00000150: 89f4 49be 5223 2d3e a3fb dabd 4666 55be
00000160: 1370 173e d0f5 66bd 599c 1ebd 1388 77be
00000170: 6c62 a4bd 37d7 5fbe d134 e83d cf17 393e
00000180: 4708 223d 6c48 3dbd 14ac afbc c4ca 7a3d
00000190: 9cb8 393e 34bf 16be dbb4 adba c3de 63be
000001a0: 98b7 d2bb a521 65bd 37c4 533c eaa8 61bd
000001b0: 9be6 b1bd 57d2 c7bd 8983 523e 5a08 15be
000001c0: 8bfa 05be da8b fa3d 615f 72be 1eff 36be
000001d0: 9f63 26be e55c ce3c 7991 443e 5a9a b6bd
000001e0: 94a3 d83d 63e4 cb3d 7159 2a3e a7d7 5d3e
000001f0: fcd3 3a3e d3bf 523d af36 833d 2531 d2bd
00000200: 42ca 083e feac 30be e57e b5bd c5bb 753d
00000210: 84e0 3dbe 13f5 5d3e f856 1e3e d231 023e
00000220: 5494 333e bc13 743d c824 cc3d 369e 363e
00000230: 4c37 443e 3a38 3ebe 76d5 683e bd86 363e
00000240: 4c36 45bd 08ef bf3d f117 163e bb05 e23d
00000250: 3f8b 0f3e 3f5e d23b 1005 58bd d9c0 0f3e
00000260: 5381 513e b48b 483e 66f5 73be e421 4a3e
00000270: 302f 6a3e cb7e 81bd c51d b53d d8fa dfbc
00000280: 149c a03d 404d 4c3e 9f81 d23b ed44 563e
00000290: cc60 2ebe f83a 4b3e 48a7 8c3d 8fb9 78be
000002a0: 8c70 aebd 7640 1e3e 4faa 3b3e 16d3 e23d
000002b0: e890 0e3e 1618 793e dea8 b73c 55d1 37be
000002c0: 6dbb 0f3e dab4 ec3c 3a7c 783d df48 27be
000002d0: 330a 0c3d 2b03 58be 478d 7ebe bba0 a03d
000002e0: bf04 26be 414e 27be b820 04be c570 dabd
000002f0: b7dd 3bbe 9abe bfbd 1f23 8ebd a631 36be
00000300: ca30 42be 2a23 c4ba ca10 7cbd 4598 11be
00000310: 21a1 12be 5ea0 19be 8ed6 27be 697c d6bd
00000320: 40c1 37be ba2e 9f3d 8fef 04ba bf47 58be
00000330: 2656 55bd 8f95 693e 044b 3cbd 5390 cfbc
00000340: 8cab 503e a293 033e c36f 3fbe eaf6 c63b
00000350: 529d 253c 8204 ec3b 0bc3 3e3e 9f58 3f3e
00000360: 577a 6bbe 19a0 1d3e 0619 893d 333a 6abe
00000370: 684b b6bd 87c2 7cbd 95ad 11bd 65a3 b3bd
00000380: 8690 4fbe 04a9 80be b12d f3bd b6c4 c4bd
00000390: aec2 07be da1d 453e 2944 ad3b e636 7dbe
000003a0: 0018 b23c 452a b33d f005 613e 2a76 35be
000003b0: 4491 73be c196 353e 18b3 5c3e 2692 cc3d
000003c0: 6975 acbd 660d 40be ef90 01be 785d 293d
000003d0: 70a7 5e3b 278a 223c 5a28 27bd 6a86 0bbd
000003e0: 1337 ecbd 1ff4 873d cee9 0c3e 0433 65be
000003f0: 3caf 5abe 4ca6 10be 4bf2 e13d ee70 323c

bias f4 [16]
0.06004882 0.09484866 -0.040875997 0.1681594 0.1992933 0.24961275 -0.1573604 -0.028984556
-0.19940928 0.21696565 0.22683525 -0.0742127 0.089578465 0.22262865 0.15691054 -0.02624289
00000000: c0f5 753d 0440 c23d 976d 27bd fa31 2c3e
00000010: 8b13 4c3e 7c9a 7f3e 1623 21be 0571 edbc
00000020: f231 4cbe 3e2c 5e3e 8047 683e d4fc 97bd
00000030: ea74 b73d c4f8 633e 28ad 203e 54fb d6bc

weight f4 [32, 16, 5, 5]
0.028961573 0.04186067 0.011327922 0.047377326 0.008290922 0.03617085 0.0055732713 0.041741695
-0.0015141983 -0.024403604 0.017803298 -0.01297085 0.048144642 -0.036913596 -0.032947086 -0.037752166
-0.0150676565 0.038593367 0.033744138 0.044899296 -0.008965984 -0.018589206 -0.0015202609 -0.014403507
-0.04628389 0.04844299 0.008617729 -0.014097092 0.031062385 -0.048965782 -0.0082323905 -0.010317449
-0.04384989 -0.0479398 0.01246855 0.02637893 0.010080503 -0.012983467 -0.04018654 -0.028661951
-0.03352254 0.026625507 0.000734022 -0.031473912 0.0330088 0.041306917 0.037249617 -0.001587795
-0.00015201363 -0.006792829 -0.045232803 -0.008245476 0.01496387 -0.028692009 0.017920258 -0.03441412
0.041022025 0.035870854 0.0022451396 0.039080963 0.02512534 0.024713947 0.015365634 0.033371147
-0.024292832 0.035432722 -0.03634776 0.035050645 0.018142462 0.017594459 0.03120377 0.0055401507
0.012791362 -0.018943088 0.013556066 -0.047241338 0.03163081 -0.046525203 -0.020301823 -0.023552222
-0.01650276 -0.024123834 -0.019922722 0.03022524 0.050043076 0.045400605 -0.013084529 0.051466618
-0.0007682476 -0.027372224 -0.02030565 0.044788685 0.016726855 -0.041383583 0.036621496 -0.016646985
0.039387174 0.040474202 0.022002706 0.020654524 -0.04070696 0.02914761 0.01128235 -0.031972576
-0.0011370492 0.048411004 0.039647043 0.040238973 -0.0241227 -0.019422285 0.009992277 0.0021272185
0.021851445 0.040988695 0.03261776 -0.03228533 0.010172967 0.037817422 -0.041706175 0.041324135
0.031659007 -0.020994889 0.018895553 -0.035047863 0.028243175 0.0037757726 -0.045637738 -0.010403663
-0.015820973 0.0041706017 -0.046806157 0.0023441107 -0.040645514 0.025042336 0.021644585 0.009698361
-0.02291035 0.011809603 -0.026010498 0.044648904 0.0354539 -0.020633332 -0.045347624 0.031684462
-0.025199512 0.020506613 -0.0029837356 -0.0008528775 0.012676829 -0.037774045 0.049201544 -0.009594313
0.00078568567 0.02646041 -0.025722224 -0.040560633 0.019102907 -0.009821522 0.045610145 0.043137636
-0.044724155 -0.043954987 -0.04555102 0.034213565 0.021007983 0.026537446 -0.012142537 0.03137382
-0.020898052 0.031462356 0.016276753 0.044066347 -0.031637322 0.017527658 0.019292766 -0.046394538
0.0015013008 -0.047597002 -0.04696299 -0.0056635235 0.006205365 0.03195008 -0.010353152 -0.025720946
-0.045924347 0.036783695 0.029470261 0.001816336 0.033622935 -0.0501828 0.04516653 -0.03357325
0.041399468 -0.020057201 -0.021667646 0.005375534 -0.04715976 0.04531635 0.012741797 0.031004565
-0.048047654 0.012582154 0.015779343 -0.0425168 -0.02565022 -0.04273614 0.015297298 0.009943984
-0.032795407 -0.00046472417 -0.040569823 -0.004780818 -0.045848846 -0.017808605 0.02032719 0.044622395
-0.025465218 0.02251615 -0.044277113 -0.014143826 0.029257908 -0.01752169 -0.02260975 -0.052543625
-0.024729608 0.022555094 0.014317944 -0.04297361 0.023264488 0.010394636 0.032550983 0.024756037
-0.029739566 0.0027940099 -0.007468493 -0.047101703 0.01091049 -0.008611695 0.022184081 0.028109068
-0.013024102 0.029794343 -0.038943186 -0.040774312 -0.0011775668 0.00010907283 0.011674501 0.0040267664
0.0030780663 -0.012981534 0.022752816 0.010324147 -0.029931076 0.043054625 0.004730836 0.029892346
00000000: d240 ed3c 1876 2b3d c098 393c ba0e 423d
00000010: a6d6 073c e327 143d fd9f b63b 57f9 2a3d
00000020: 1078 c6ba 11ea c7bc 39d8 913c b083 54bc
00000030: 5133 453d b632 17bd 86f3 06bd 04a2 1abd
00000040: 55de 76bc 1414 1e3d 4b37 0a3d 53e8 373d
00000050: 10e6 12bc 6448 98bc 7e43 c7ba b0fc 6bbc
00000060: 2d94 3dbd 286c 463d 6031 0d3c 7df7 66bc
00000070: 8b76 fe3c 5890 48bd 26e1 06bc 850a 29bc
00000080: f19b 33bd 865c 44bd e448 4c3c a018 d83c
00000090: b228 253c 9cb8 54bc a49a 24bd 78cc eabc
000000a0: ee4e 09bd bc1d da3c 626b 403a caea 00bd
000000b0: 3c34 073d 7131 293d 0e93 183d 8f1d d0ba
000000c0: d965 1fb9 6196 debb 0846 39bd 0818 07bc
000000d0: 052b 753c 810b ebbc 81cd 923c d2f5 0cbd
000000e0: b606 283d 51ed 123d 3123 133b 5c13 203d
000000f0: a8d3 cd3c e774 ca3c 24c0 7b3c 2fb0 083d
00000100: c301 c7bc e721 113d 64e1 14bd 4491 0f3d
00000110: 809f 943c 4122 903c 0c9f ff3c 278a b53b
00000120: dc92 513c 892e 9bbc 431a 5e3c 2280 41bd
00000130: 4f8f 013d 3691 3ebd 0250 a6bc 97f0 c0bc
00000140: cc30 87bc 599f c5bc fa34 a3bc ec9a f73c
00000150: f8f9 4c3d fcf5 393d 7e60 56bc a9ce 523d
00000160: 3964 49ba b73b e0bc 0958 a6bc 5774 373d
00000170: c206 893c d581 29bd 6c00 163d 425f 88bc
00000180: 7254 213d 47c8 253d 053f b43c ad33 a93c
00000190: 57bc 26bd f8c6 ee3c 9bd9 383c adf5 02bd
000001a0: 0a09 95ba 9e4a 463d f064 223d 9fd1 243d
000001b0: f89c c5bc 7c1b 9fbc a6b6 233c ce68 0b3b
000001c0: cd01 b33c c3e3 273d 339a 053d 9f3d 04bd
000001d0: 84ac 263c 71e6 1a3d 18d4 2abd 7f43 293d
000001e0: e0ac 013d 79fd abbc d9ca 9a3c 598e 0fbd
000001f0: 3b5e e73c f472 773b a3ee 3abd 2074 2abc
00000200: fc9a 81bc 8ba9 883b d0b7 3fbd a79f 193b
00000210: e97b 26bd 9625 cd3c fc4f b13c e0e5 1e3c
00000220: 7cae bbbc 117d 413c f813 d5bc c5e1 363d
00000230: 1c38 113d 3c07 a9bc 6ebe 39bd 91c7 013d
00000240: 356f cebc 7cfd a73c c78a 43bb a493 5fba
00000250: 79b2 4f3c f5b8 1abd 8f87 493d 7731 1dbc
00000260: 79f6 4d3a 80c3 d83c 6ab7 d2bc e822 26bd
00000270: b37d 9c3c 73ea 20bc b4d1 3a3d 17b1 303d
00000280: ad30 37bd 250a 34bd b593 3abd 8623 0c3d
00000290: ef18 ac3c 0f65 d93c 7ef1 46bc d681 003d
000002a0: 6432 abbc acde 003d d356 853c ea7e 343d
000002b0: 2396 01bd 2a96 8f3c dd0b 9e3c 3308 3ebd
000002c0: 4cc7 c43a 13f5 42bd 445c 40bd 1495 b9bb
000002d0: 6056 cb3b 16de 023d 44a0 29bc bcb4 d2bc
000002e0: 2b1b 3cbd 80aa 163d 9e6b f13c 1f12 ee3a
000002f0: 34b8 093d 7b8c 4dbd 8a00 393d 1b84 09bd
00000300: 7d92 293d 004f a4bc 5980 b1bc 3f25 b03b
00000310: 982a 41bd a39d 393d f8c2 503c 49fd fd3c
00000320: 9ecd 44bd 6125 4e3c ae43 813c 1926 2ebd
00000330: 6920 d2bc 170c 2fbd 85a1 7a3c 18ec 223c
00000340: 7a54 06bd 39a6 f3b9 8b2c 26bd 68a8 9cbb
00000350: 00cc 3bbd 5ae3 91bc 3585 a63c f9c5 363d
00000360: 6f9c d0bc ca73 b83c eb5b 35bd 82bb 67bc
00000370: 48ae ef3c a689 8fbc 1538 b9bc fc37 57bd
00000380: bf95 cabc 76c5 b83c cf95 6a3c 1905 30bd
00000390: 2b95 be3c 434e 2a3c 2e54 053d 2ccd ca3c
000003a0: 64a0 f3bc b51b 373b 43ba f4bb b7ed 40bd
000003b0: e9c1 323c 1118 0dbc 64bb b53c fd44 e63c
000003c0: 0b63 55bc 4413 f43c e482 1fbd f702 27bd
000003d0: 9658 9aba 08be e438 6846 3f3c f7f2 833b
000003e0: 62b9 493b 80b0 54bc 1d64 ba3c 9c26 293c
000003f0: 0432 f5bc 0c5a 303d 2105 9b3b cbe0 f43c

bias f4 [32]
-0.007983798 -0.012776173 -0.030107694 -0.0033836362 -0.025390934 0.00019183778 -0.001988638 -0.036417272
0.011346994 -0.0055059493 -0.03272025 -0.014403472 -0.034780625 0.030376408 0.025437132 0.031459164
-0.04376936 -0.023129206 0.0026471915 -0.028083444 0.01998124 -0.04892349 0.0059440373 0.046144236
0.012908068 -0.030385248 -0.047075883 -0.03851872 -0.036135525 0.019283723 0.02640678 -0.008039768
00000000: 7ace 02bc 2753 51bc 69a4 f6bc ffbf 5dbb
00000010: a600 d0bc 1028 4939 cf53 02bb 472a 15bd
00000020: bee8 393c 406b b4bb ab05 06bd 8afc 6bbc
00000030: 2176 0ebd f2d7 f83c 8861 d03c 53db 003d
00000040: 8047 33bd 7679 bdbc 817c 2d3b 400f e6bc
00000050: b3af a33c ff63 48bd 33c6 c23b bd01 3d3d
00000060: 5c7c 533c 7cea f8bc a4d2 40bd cec5 1dbd
00000070: d802 14bd e6f8 9d3c 0853 d83c 3bb9 03bc

weight f4 [64, 1792]
-0.0065404475 -0.015032055 -0.022050269 -0.008501898 -0.00460116 -0.0006732829 -0.020645937 0.021541389
0.0046093687 0.017661357 -0.00310185 -0.01633583 -0.013457148 -0.017749356 -0.015998753 -0.0137154395
-0.01168322 0.020423708 -0.0140767675 0.019926267 -0.012858514 0.004313646 -0.014149248 -0.0060954876
0.021266876 0.005075192 -0.014483392 -0.0061380863 -0.01453666 0.015195923 -0.005795637 0.015805023
0.010435959 -0.017722037 -0.005305266 0.0043262206 -0.015309042 -0.0032818727 -0.010025146 -0.021058986
0.01939861 -0.017309213 -0.006992886 0.012818975 0.023275403 -0.014127789 0.011637455 0.0069997683
-0.008658247 -0.0072981063 0.0028390754 -0.016609188 0.01593838 -0.0055320896 -0.011853628 -0.01885075
0.010225123 -0.014281833 0.00846562 -0.023329422 -0.005790364 -0.015367599 0.0057178587 0.02149553
-0.019863952 -0.013651276 -0.019950818 0.013939256 0.011863152 -0.018029038 0.01244683 -0.006645145
-0.0065557566 0.0030687079 -0.017040092 0.017019818 -0.019580297 -0.01420518 -0.008536611 -0.009998847
-0.014923446 0.009562591 0.016138116 -0.012128469 -0.020694919 0.02100085 -0.008204846 -0.019362621
0.0060016494 -0.01975001 -0.013287599 0.014392497 0.01546005 0.02086475 -0.0046732966 -0.009759649
0.013374278 0.019434454 0.008135492 0.008435631 -0.02011638 -0.0154740745 0.008062379 0.01405278
-0.02136887 0.0110104885 0.011192648 -0.020338122 -0.016761944 0.002367938 -0.021455059 0.0049812496
-0.019862205 0.009436483 -0.020803196 -0.010787073 -0.01190626 0.022117497 0.011524236 -0.01980498
0.006119253 -0.0054800715 0.006200958 -0.020285724 0.017134646 -0.005291542 0.010317942 -0.015436061
-0.020407047 0.01210141 0.00019190833 0.016015975 -0.023402251 0.0045856405 -0.0021741036 0.002717374
-0.0058595613 0.013247663 -0.013698475 -0.002693057 -0.015980542 0.01815799 0.009256301 0.00711184
0.0065788645 0.018821148 -0.0010044947 -0.011494639 0.00082267635 -0.014834768 -0.0040739104 0.0030606464
-0.0070503484 -0.007316837 0.01267376 0.010245899 -0.021327162 -0.0003862325 0.0009556487 0.010954691
-0.010484775 0.00070665777 -0.01678186 -0.008498892 -0.022274125 -0.018957673 -0.008695335 -0.003106812
-0.0035491474 -0.0053393375 -0.0103133945 0.016265674 -0.0047547817 0.01317584 -0.010827933 -0.004710011
-0.006030835 0.015298391 0.009535501 -0.016087525 -0.020449614 -0.009473065 -0.023067743 -0.020770062
-0.0048252903 0.01445285 -0.0153196305 0.0091301445 -0.015541899 -0.017240098 -0.016003763 -0.0023612287
-0.018464252 -0.0069832355 -0.017291084 -0.015729506 -0.023395794 0.004941089 -0.017225198 0.0071801897
-0.013208274 -0.020431235 0.008989641 0.019640518 0.014328001 -0.015275151 0.021984214 -0.0015642531
-0.008821978 0.020485723 -0.0011322368 -0.002410436 0.012460245 -0.020983629 -0.022562813 -6.8906695e-05
0.011359284 -0.015412792 -0.011793116 0.011025472 -0.0046641584 -0.0064510144 0.018575588 -0.013428723
0.012107441 -0.0011887178 -0.0025982969 0.021394582 -0.0184382 -0.01722654 -0.016940072 -0.013702159
0.015969569 -0.003897516 0.016231595 -0.011287629 0.010804942 -0.012812561 -0.012148826 -0.011517957
-0.0015843008 -0.012911853 -0.0051009767 0.022136824 -0.016433347 0.020892458 -0.0052862875 0.0045103114
-0.015226526 0.0121311825 -0.0121960575 0.0146864485 0.015871888 -0.019877285 -0.021496585 0.011578577
00000000: 4051 d6bb 0249 76bc c4a2 b4bc 8b4b 0bbc
00000010: 54c5 96bb 407f 30ba ab21 a9bc 9177 b03c
00000020: 300a 973b 8dae 903c 6848 4bbb b8d2 85bc
00000030: 5f7b 5cbc 1967 91bc d10f 83bc b9b6 60bc
00000040: fa6a 3fbc 9f4f a73c 3ea2 66bc 693c a33c
00000050: 84ac 52bc 7c59 8d3b 3fd2 67bc a8bc c7bb
00000060: df37 ae3c cc4d a63b c04b 6dbc 0022 c9bb
00000070: 2c2b 6ebc 52f8 783c 54e9 bdbb 8979 813c
00000080: 96fb 2a3c ce2d 91bc ccd7 adbb f8c2 8d3b
00000090: c7d2 7abc b014 57bb 8340 24bc e583 acbc
000000a0: d5e9 9e3c 0dcc 8dbc 9424 e5bb ae06 523c
000000b0: 0fac be3c 3e78 67bc 06ab 3e3c 505e e53b
000000c0: 52db 0dbc f424 efbb c80f 3a3b fe0f 88bc
000000d0: 3591 823c 8846 b5bb b835 42bc e36c 9abc
000000e0: 4687 273c 59fe 69bc 62b3 0a3c 581d bfbc
000000f0: 18bd bdbb 62c8 7bbc e05c bb3b 6517 b03c
00000100: bab9 a2bc 9aa9 5fbc e66f a3bc 7a61 643c
00000110: aa5d 423c a2b1 93bc caed 4b3c 84bf d9bb
00000120: acd1 d6bb 601c 493b aa97 8bbc 256d 8b3c
00000130: dc66 a0bc d8bc 68bc 24dd 0bbc 34d2 23bc
00000140: 7881 74bc 6aac 1c3c 1534 843c 7cb6 46bc
00000150: 6488 a9bc f909 ac3c 9e6d 06bc 5c9e 9ebc
00000160: 7ca9 c43b c6ca a1bc 3bb4 59bc 82ce 6b3c
00000170: 264c 7d3c 8dec aa3c 7422 99bb efe6 1fbc
00000180: ca1f 5b3c 0135 9f3c ba4a 053c 9a35 0a3c
00000190: 1bcb a4bc f986 7dbc 1218 043c a23d 663c
000001a0: c50d afbc 5665 343c 5e61 373c 229c a6bc
000001b0: 5850 89bc 682f 1b3b 85c2 afbc c039 a33b
000001c0: 10b6 a2bc 7a9b 1a3c 776b aabc 43bc 30bc
000001d0: 7912 43bc c12f b53c 26d0 3c3c 0e3e a2bc
000001e0: 0484 c83b 2c92 b3bb 6831 cb3b 3f2e a6bc
000001f0: f55d 8c3c ac64 adbb 960c 293c 88e7 7cbc
00000200: ae2c a7bc fe44 463c 003b 4939 ef33 833c
00000210: 14b6 bfbc 2443 963b 687b 0ebb f815 323b
00000220: 9001 c0bb ba0c 593c 926f 60bc 007e 30bb
00000230: a0e9 82bc 11c0 943c bea7 173c 700a e93b
00000240: 8493 d73b cf2e 9a3c 40a9 83ba 0354 3cbc
00000250: e0a8 573a 870d 73bc 707e 85bb 2095 483b
00000260: 9c06 e7bb 14c2 efbb 9aa5 4f3c 6ade 273c
00000270: 4db6 aebc 407f cab9 8084 7a3a 4e7b 333c
00000280: 55c8 2bbc 003f 393a 1c7a 89bc f03e 0bbc
00000290: 3a78 b6bc 1f4d 9bbc e176 0ebc a89b 4bbb
000002a0: d098 68bb 9cf5 aebb 83f9 28bc 973f 853c
000002b0: 00ce 9bbb 7adf 573c a567 31bc 7056 9abb
000002c0: 509e c5bb 1aa6 7a3c ca3a 1c3c fcc9 83bc
000002d0: f385 a7bc ea34 1bbc 90f8 bcbc fa25 aabc
000002e0: 781d 9ebb a6cb 6c3c 30ff 7abc 9a96 153c
000002f0: 73a3 7ebc 1b3b 8dbc 531a 83bc d8be 1abb
00000300: 5842 97bc a0d3 e4bb 08a6 8dbc 2adb 80bc
00000310: 89a8 bfbc dce8 a13b dc1b 8dbc cc47 eb3b
00000320: 8467 58bc 685f a7bc 4a49 133c 27e5 a03c
00000330: febf 6a3c a044 7abc 3d18 b43c a007 cdba
00000340: 0f8a 10bc add1 a73c 9067 94ba 68f8 1dbb
00000350: 0e26 4c3c dce5 abbc a6d5 b8bc 0082 90b8
00000360: 4a1c 3a3c ef85 7cbc ea37 41bc 2ea4 343c
00000370: ccd5 98bb 0863 d3bb d52b 983c 2604 5cbc
00000380: 4a5e 463c c0ce 9bba 3048 2abb b143 af3c
00000390: b50b 97bc ac1e 8dbc e8c5 8abc 057f 60bc
000003a0: 9dd2 823c 786d 7fbb 1ff8 843c bfef 38bc
000003b0: 3607 313c c7eb 51bc df0b 47bc d0b5 3cbc
000003c0: 50a8 cfba 3d8c 53bc 1826 a7bb 4958 b53c
000003d0: 3a9f 86bc a926 ab3c 9838 adbb 3ccb 933b
000003e0: ae78 79bc dec1 463c f9d1 47bc 6e9f 703c
000003f0: c305 823c b0d5 a2bc 9b19 b0bc 12b4 3d3c

bias f4 [64]
-0.008124146 -0.016216319 0.013880414 -0.015222544 -0.0020757327 -0.018739391 0.0056601167 -0.004422534
-0.013004376 -0.002340786 0.00040767514 -0.006728307 0.008024835 -0.016540632 -0.018971866 -0.0022943243
-0.018221984 0.0142709445 0.016345592 0.017040484 0.0154209705 0.003318403 0.011513887 0.020739444
-0.017330931 -0.0068411813 -0.014457274 0.011653273 -8.746672e-05 -0.007878562 -0.012076221 0.015795987
0.020487055 -0.013619808 0.0057958104 -0.0040959506 -0.014548696 -0.0070162327 0.02100944 -0.022221845
-0.0046706195 -0.013679027 -0.017672742 -0.015312042 0.014353574 0.0054948446 0.021423168 0.01763905
-0.009096878 -0.0213008 -0.010680241 0.005130667 -0.009269023 -0.0063384655 -0.01903242 -0.024518365
-0.02113128 0.010978068 0.008319141 -0.0062956675 -0.020698773 0.0096655395 0.010436198 0.002673636
00000000: 231b 05bc 16d8 84bc ad6a 633c fa67 79bc
00000010: 0409 08bb 5a83 99bc 8078 b93b e7ea 90bb
00000020: 4e10 55bc df67 19bb 3bbd d539 2179 dcbb
00000030: 997a 033c 3880 87bc e36a 9bbc 605c 16bb
00000040: 4546 95bc aed0 693c 31e7 853c 7c98 8b3c
00000050: 3da8 7c3c 9079 593b bea4 3c3c c4e5 a93c
00000060: 99f9 8dbc fd2b e0bb 34de 6cbc 5fed 3e3c
00000070: 566e b7b8 1615 01bc 58db 45bc 9666 813c
00000080: 78d4 a73c 9d25 5fbc c8ea bd3b 5337 86bb
00000090: a75d 6ebc 6de8 e5bb fd1b ac3c 960a b6bc
000000a0: ff0b 99bb ff1d 60bc 6dc6 90bc 5cdf 7abc
000000b0: 412b 6b3c 190e b43b a47f af3c c57f 903c
000000c0: 120b 15bc 047f aebc 2dfc 2ebc 271f a83b
000000d0: 1add 17bc e7b2 cfbb e1e9 9bbc bdda c8bc
000000e0: 821b adbc 5bdd 333c 024d 083c e34b cebb
000000f0: 7990 a9bc 365c 1e3c 96fc 2a3c 2b38 2f3b

weight f4 [6, 64]
-0.103751615 0.024409873 -0.096688 0.08617034 0.09298997 -0.12339857 -0.099176146 -0.10506284
-0.0283679 -0.115382 0.09722181 0.025469918 -0.085647784 0.100669876 -0.020582667 0.037005156
0.10212739 -0.074678555 0.0023266242 0.1188941 -0.08328447 0.058024168 -0.019425128 -0.007548861
-0.07780974 -0.08255121 -0.032616574 0.060445644 0.06796661 0.11597064 0.06766566 0.020288136
-0.015089126 0.008320096 0.088221684 -0.08777447 0.09696201 -0.0066328505 0.11435615 0.032638546
-0.013774958 0.050534114 0.027403152 -0.046595693 0.02613185 -0.109332316 -0.109015696 -0.0672386
0.027649365 0.10412593 -0.006223103 0.022082282 0.06560844 -0.027837489 -0.06434406 0.04618529
0.10630166 -0.06186309 0.05398823 0.014597857 0.0164135 0.123341106 0.08229383 0.04815427
-0.09945105 -0.0687296 -0.051704574 -0.010081594 0.05329304 -0.025092449 -0.07441653 -0.062600315
-0.048262715 0.093690835 -0.021581708 0.100289136 0.007902565 0.021725692 -0.12300386 -0.08850778
-0.07410844 0.009182792 -0.11932279 0.07708076 -0.03784652 0.047385193 0.03566989 0.014537196
-0.01888543 0.0039921245 -0.110921584 0.08325805 0.07292706 -0.12094429 -0.09406121 -0.034169372
0.09638673 0.045947827 -0.059993554 -0.0124332495 0.01859547 -0.061770413 -0.07590568 -0.013017843
0.047828183 -0.024830204 -0.017046347 0.0239943 -0.063505076 0.11692474 0.018054824 -0.06126984
0.070829384 0.021614425 -0.004872318 0.024217315 0.10619069 -0.0096127475 0.04243505 -0.058226828
-0.005496027 -0.06669719 -0.06042328 0.054721758 -0.08613418 0.0931426 -0.002799464 0.009000025
-0.007928491 -0.11265852 0.0026940554 0.03823006 -0.09831486 0.011982917 -0.05423523 -0.014879409
0.007479573 0.12069136 0.03840129 0.019062549 -0.101652056 0.09197657 -0.038212452 -0.09426156
0.03235117 -0.013946866 -0.07325749 -0.0572937 -0.04571041 -0.041018203 0.10544116 0.1103778
0.08874526 -0.014938394 0.071294285 0.10552915 -0.081479594 -0.0938335 -0.002713382 -0.05659274
0.094649024 -0.07737221 -0.085428216 -0.09610882 0.11218653 0.11408773 0.10385839 0.038976498
-0.0571547 -0.06411177 0.104299426 -0.005789972 -0.108642474 0.07643513 -0.032818783 0.10670079
0.046114717 0.07183765 -0.12434147 0.038814876 -0.05945648 -0.07645655 0.023133866 0.08065935
0.09646685 -0.0831966 0.019378828 -0.04662198 -0.11512661 0.068491094 -0.11245766 -0.09916461
-0.059414536 0.06785659 0.092627704 0.080157205 -0.07995965 -0.04132344 0.12058749 -0.042615514
-0.062337995 -0.045585558 0.024859022 -0.12215781 -0.00910709 0.018166233 0.12047473 -0.013857338
0.0038995838 0.06897444 0.017731898 -0.07442105 0.10607623 -0.027124405 -0.02335787 -0.062037215
-0.045136034 -0.06614153 0.02333449 0.03779842 0.065499954 -0.010045127 -0.008456695 -0.08324674
0.04679405 0.020984054 0.09317139 -0.031597994 -0.025601137 -0.042671427 0.059853863 -0.026020544
-0.104430564 -0.08058752 -0.028547077 0.030270275 -0.06321009 0.048286773 0.037339527 -0.05643979
0.028506218 0.021271026 -0.012129989 0.00020724066 -0.08724969 0.042438086 -0.12388661 0.04517622
0.038633205 -0.020420663 0.043220155 0.051157672 -0.033733815 0.06562996 -0.031175893 0.00539146
00000000: ba7b d4bd 37f7 c73c 5c04 c6bd 137a b03d
00000010: 8771 be3d 64b8 fcbd dd1c cbbd 302b d7bd
00000020: cc63 e8bc 664d ecbd 3a1c c73d 4aa6 d03c
00000030: 1b68 afbd 022c ce3d fb9c a8bc b892 173d
00000040: 2a28 d13d 12f1 98bd 477a 183b c07e f33d
00000050: 0c91 aabd c0aa 6d3d 7221 9fbc 705c f7bb
00000060: b75a 9fbd 9c10 a9bd f598 05bd da95 773d
00000070: 1432 8b3d 0482 ed3d 4b94 8a3d 4e33 a63c
00000080: 6238 77bc 0351 083c 92ad b43d 1ac3 b3bd
00000090: 0594 c63d 6258 d9bb 8f33 ea3d ffaf 053d
000000a0: 5db0 61bc dcfc 4e3d 937c e03c 20db 3ebd
000000b0: 7612 d63c 9fe9 dfbd 9f43 dfbd 64b4 89bd
000000c0: ec80 e23c fa3f d53d 2ceb cbbb e7e5 b43c
000000d0: b85d 863d 720b e4bc d2c6 83bd c92c 3d3d
000000e0: afb4 d93d 2764 7dbd c322 5d3d da2b 6f3c
000000f0: 9b75 863c 439a fc3d ab89 a83d 693d 453d
00000100: feac cbbd 1bc2 8cbd 2dc8 53bd 452d 25bc
00000110: cd49 5a3d ae8e cdbc b267 98bd 9834 80bd
00000120: 20af 45bd fbe0 bf3d 1fcc b0bc 6464 cd3d
00000130: c379 013c 14fa b13c 73e9 fbbd 9143 b5bd
00000140: 2ac6 97bd 6c73 163c 825f f4bd 84dc 9d3d
00000150: f404 1bbd fa16 423d 971a 123d 6b2d 6e3c
00000160: 9eb5 9abc 5ed0 823b db2a e3bd 3283 aa3d
00000170: c85a 953d a4b1 f7bd 2aa3 c0bd 2ff5 0bbd
00000180: 6866 c53d ca33 3c3d cdbb 75bd d4b4 4bbc
00000190: 8755 983c f902 7dbd 7074 9bbd ca48 55bc
000001a0: 7ce7 433d b668 cbbc c8a4 8bbc b28f c43c
000001b0: f30e 82bd 3d76 ef3d b6e7 933c 15f6 7abd
000001c0: ff0e 913d bc10 b13c f7a7 9fbb 6463 c63c
000001d0: 817a d93d c97e 1dbc 60d0 2d3d 417f 6ebd
000001e0: 0418 b4bb 8998 88bd 677e 77bd ec23 603d
000001f0: 1e67 b0bd 8cc1 be3d 3677 37bb d774 133c
00000200: 80e6 01bc 83b9 e6bd c08e 303b 2097 1c3d
00000210: 4d59 c9bd ff53 443c c325 5ebd c4c8 73bc
00000220: 3517 f53b 082d f73d ac4a 1d3d 1029 9c3c
00000230: f42e d0bd 365e bc3d a984 1cbd 340c c1bd
00000240: a982 043d 6581 64bc 0608 96bd ccac 6abd
00000250: d73a 3bbd b402 28bd 89f1 d73d c20d e23d
00000260: 13c0 b53d 2ac0 74bc bd02 923d ab1f d83d
00000270: c6de a6bd c72b c0bd ffd2 31bb cacd 67bd
00000280: 59d7 c13d 5275 9ebd fdf4 aebd b3d4 c4bd
00000290: 0dc2 e53d d4a6 e93d b5b3 d43d d2a5 1f3d
000002a0: 0c1b 6abd 084d 83bd f09a d53d ceb9 bdbb
000002b0: f27f debd 058a 9c3d fd6c 06bd f285 da3d
000002c0: c9e2 3c3d 9e1f 933d bea6 febd 59fc 1e3d
000002d0: a388 73bd 4095 9cbd 3c83 bd3c bb30 a53d
000002e0: 6990 c53d fb62 aabd 59c0 9e3c b0f6 3ebd
000002f0: 80c7 ebbd 0f45 8c3d 3450 e6bd d116 cbbd
00000300: a85c 73bd 65f8 8a3d 98b3 bd3d 7629 a43d
00000310: e3c1 a3bd c442 29bd 93f6 f63d 9b8d 2ebd
00000320: 2056 7fbd ecb7 3abd 26a5 cb3c e02d fabd
00000330: e735 15bc 5ad1 943c 75bb f63d e309 63bc
00000340: 2990 7f3b 7942 8d3d 7c42 913c 106a 98bd
00000350: 7f3e d93d 0034 debc 0159 bfbc bc1a 7ebd
00000360: 90e0 38bd 3675 87bd f927 bf3c 84d2 1a3d
00000370: d724 863d 5194 24bc f38d 0abc 447d aabd
00000380: 1eab 3f3d c0e6 ab3c a4d0 be3d e66c 01bd
00000390: 7ab9 d1bc 3cc8 2ebd 5329 753d 0929 d5bc
000003a0: b1df d5bd 120b a5bd 8fdb e9bc 5ef9 f73c
000003b0: 4b74 81bd 5ac8 453d 55f1 183d 692d 67bd
000003c0: df85 e93c 9340 ae3c ddbc 46bc be4e 5939
000003d0: f7af b2bd 8fd3 2d3d 43b8 fdbd b30a 393d
000003e0: da3d 1e3d 3c49 a7bc 9e07 313d b58a 513d
000003f0: 782c 0abd 0069 863d 9664 ffbc d8aa b03b

bias f4 [6]
0.08594412 -0.01796078 0.020034429 -0.022940347 -0.09154593 -0.11682343
00000000: 7903 b03d 7c22 93bc 3e1f a43c 65ed bbbc
00000010: 6f7c bbbd 1f41 efbd
