net_model.pkl (torch, 487431 bytes, 10 tensors)

weight f4 [6, 1, 2, 2]
-0.005228162 0.22851098 -0.49011165 -0.39128673 0.3943548 0.06888856 0.32579613 -0.49757344
-0.21556035 -0.028554821 -0.13359743 0.46394673 0.16560745 -0.14024284 -0.25657964 0.46007475
-0.19484383 -0.33559084 0.09422314 0.091056466 0.04994959 -0.38518134 0.26755074 -0.18166369
00000000: 0051 abbb c8fe 693e eaef fabe bc56 c8be
00000010: dfe8 c93e 7215 8d3d c0ce a63e f2c1 febe
00000020: dabb 5cbe cdeb e9bc c4cd 08be 6d8a ed3e
00000030: 0095 293e d29b 0fbe 685e 83be eb8e eb3e
00000040: 2485 47be 90d2 abbe 10f8 c03d d07b ba3d
00000050: f197 4c3d 7d36 c5be 69fc 883e 0c06 3abe

bias f4 [6]
-0.37578368 -0.23616633 -0.2457658 -0.288147 -0.29128373 -0.24005322
00000000: b866 c0be 96d5 71be 08aa 7bbe 0188 93be
00000010: 2423 95be 83d0 75be

weight f4 [16, 6, 5, 5]
-0.017259687 0.060106277 0.019675516 -0.050584204 0.039871253 -0.069349885 -0.035908133 -0.030356504
0.05025208 -0.04498393 0.0324445 0.0737578 0.072803244 -0.07969561 0.052349567 -0.051487856
-0.048789065 0.029402979 0.042540215 -0.04335704 0.037839636 0.02631329 -0.06412338 -0.0802643
-0.012179442 -0.029990653 0.014093679 0.02893317 0.048003197 0.05390777 -0.049373712 0.027962448
-0.054365896 -0.02903368 -0.056976337 -0.0014136685 0.030559078 0.07614043 -0.06070279 0.01786541
0.058615934 0.0121122915 -0.036594395 -0.028943462 0.021780545 -0.06853534 0.034090396 -0.03479717
-0.03793488 -0.0108198915 -0.059905965 5.4804805e-06 -0.063478 0.017114686 -0.06602444 0.01737764
0.00336924 -0.024244474 -0.002391351 -0.026777243 -0.030771703 -0.023890989 0.028397385 -0.0628136
-0.037679024 -0.030340893 -0.04695771 0.04440823 0.05928559 -0.03568542 0.06429298 -0.021964204
0.066205986 -0.07027605 -0.08208222 0.016712004 0.059866223 0.0030533858 0.06624371 -0.04949971
0.049585298 0.07569046 0.02540526 -0.0055087376 -0.05703285 0.047973864 -0.055549845 0.07316401
0.0791463 -0.048145495 -0.051042248 0.054121956 -0.0029636985 -0.030688714 0.039575543 0.06828954
-0.024581885 0.06728479 0.073374115 -0.039948396 -0.02713389 -0.04379266 -0.0589169 -0.035736844
0.02459681 -0.030282177 0.056932196 0.04847105 -0.07403869 0.0657357 0.03398005 0.0151507035
0.040066324 0.030156948 0.00095546246 -0.071793914 0.023392424 0.042453498 -0.04819198 -0.016883336
-0.053574227 -0.028356872 -0.0797287 -0.06019765 0.045120314 0.039172027 -0.013184608 -0.010101765
0.0035843465 0.072913796 -0.07498578 -0.05852457 0.054272186 -0.045001034 -0.012201872 -0.017504068
-0.024304725 0.06908618 0.045558944 0.03950374 -0.026792474 -0.041896738 0.008350504 0.0037127049
-0.037224684 0.0054843873 0.0074753 0.044049878 0.062233783 -0.014550315 0.052634194 -0.012139887
-0.0066231117 -0.06503458 -0.006638497 -0.016602919 0.07429756 0.010827839 -0.0591086 -0.07256721
-0.01292669 -0.013855442 -0.00023782253 -0.008084707 0.078500375 0.035506018 -0.018192828 0.019940414
0.0066037774 0.04696086 0.0069684684 -0.058930233 -0.045398816 0.055924207 0.050028503 -0.028950857
0.024318377 -0.056328528 0.031009555 0.0020021996 -0.024588617 -0.07601175 0.0060797585 -0.015297497
0.024137734 0.07608649 -0.029328154 0.013755118 0.025102904 0.071357384 0.04761985 -0.08020989
-0.0781744 -0.045661572 -0.048800934 -0.030808542 0.00462961 -0.049397998 -0.031005364 0.051498868
-0.025746796 -0.0476197 0.040820643 -0.060080357 -0.048986867 -0.03799416 0.050830044 0.05017859
0.040817793 0.054476682 -0.048210584 0.07689704 0.0616917 0.048838362 0.0044929762 0.08000289
-0.057599165 -0.0048952075 -0.050089188 0.025268892 -0.042593297 -0.07141729 -0.044694934 0.019149614
0.05310633 0.044100724 -0.007411379 -0.050891127 0.022761583 0.07717694 0.020269418 -0.070783444
-0.036950245 -0.0313315 0.042605065 -0.021338325 -0.039039496 -0.031362414 -0.0030103829 -0.060883664
-0.009039166 -0.015043415 -0.0058275242 0.039864633 0.0072871232 0.082267456 0.07990935 -0.038896084
0.022709668 -0.068183005 0.05799772 0.052151427 0.037509285 -0.036394637 0.030150026 -0.07480719
00000000: 3064 8dbc 0032 763d 8c2e a13c 6231 4fbd
00000010: 0a50 233d 5007 8ebd 6814 13bd 34ae f8bc
00000020: 20d5 4d3d 1241 38bd 86e4 043d 540e 973d
00000030: de19 953d 7437 a3bd 806c 563d eee4 52bd
00000040: 0bd7 47bd 84de f03c a63e 2e3d 2797 31bd
00000050: bcfd 1a3d f88e d73c 1e53 83bd 9c61 a4bd
00000060: 488c 47bc f5ae f5bc 2de9 663c 4105 ed3c
00000070: 009f 443d 65ce 5c3d 173c 4abd 8111 e53c
00000080: c6ae 5ebd 0ad8 edbc 0560 69bd d84a b9ba
00000090: 0857 fa3c 84ef 9b3d 7da3 78bd 7b5a 923c
000000a0: 4317 703d a272 463c 01e4 15bd d71a edbc
000000b0: 1d6d b23c 425c 8cbd 5fa2 0b3d 7a87 0ebd
000000c0: 9b61 1bbd ea45 31bc f55f 75bd f8e4 b736
000000d0: c100 82bd 1934 8c3c d237 87bd 8d5b 8e3c
000000e0: 78ce 5c3b 599c c6bc 36b8 1cbb f35b dbbc
000000f0: f014 fcbc 09b7 c3bc a2a1 e83c 6ba4 80bd
00000100: 5255 1abd 778d f8bc ba56 40bd 67e5 353d
00000110: 72d5 723d e02a 12bd 0aac 833d 46ee b3bc
00000120: 0197 873d e4ec 8fbd b91a a8bd 9de7 883c
00000130: 4936 753d 501b 483b c8aa 873d 35c0 4abd
00000140: f419 4b3d 9a03 9b3d b11e d03c a482 b4bb
00000150: 479b 69bd 3e80 443d 3c88 63bd 03d7 953d
00000160: 7517 a23d 3634 45bd ad11 51bd fcae 5d3d
00000170: 9c3a 42bb e666 fbbc f719 223d 63db 8b3d
00000180: f35f c9bc 9ccc 893d 2b45 963d eea0 23bd
00000190: e447 debc ef5f 33bd d952 71bd cc60 12bd
000001a0: 407f c93c 5412 f8bc bc31 693d 9489 463d
000001b0: 99a1 97bd 70a0 863d aa2e 0b3d a83a 783c
000001c0: 961c 243d b40b f73c 0078 7a3a b008 93bd
000001d0: 78a1 bf3c b8e3 2d3d f464 45bd ec4e 8abc
000001e0: a670 5bbd ac4c e8bc cd48 a3bd d091 76bd
000001f0: 14d0 383d d972 203d 4104 58bc e081 25bc
00000200: 5be7 6a3b d453 953d 2592 99bd 76b7 6fbd
00000210: 834c 5e3d 0153 38bd 5cea 47bc b164 8fbc
00000220: b41a c7bc 0e7d 8d3d 049c 3a3d acce 213d
00000230: e47b dbbc ea9b 2bbd 8dd0 083c da50 733b
00000240: e978 18bd 60b6 b33b 5df3 f43b a56d 343d
00000250: dae8 7e3d 7264 6ebc f496 573d 60e6 46bc
00000260: b006 d9bb da30 85bd c087 d9bb d802 88bc
00000270: 5229 983d 4067 313c dc1b 72bd 1e9e 94bd
00000280: 78ca 53bc f001 63bc 0060 79b9 b875 04bc
00000290: cec4 a03d c26e 113d 2009 95bc 145a a33c
000002a0: 8064 d83b 085a 403d c057 e43b d460 71bd
000002b0: 1cf4 39bd c810 653d b0ea 4c3d 592a edbc
000002c0: 5537 c73c beb8 66bd c007 fe3c 5637 033b
000002d0: 116e c9bc 0cac 9bbd b638 c73b 5aa2 7abc
000002e0: 7fbc c53c 3cd3 9b3d 9941 f0bc 255d 613c
000002f0: 9ba4 cd3c d223 923d 080d 433d 1545 a4bd
00000300: e619 a0bd a107 3bbd 7de3 47bd 3262 fcbc
00000310: fcb3 973b 8e55 4abd f6fe fdbc 7af0 523d
00000320: f2ea d2bc e00c 43bd 8c33 273d d216 76bd
00000330: 74a6 48bd c49f 1bbd 2a33 503d 1188 4d3d
00000340: 8f30 273d f122 5f3d 7678 45bd 327c 9d3d
00000350: 70b0 7c3d bc0a 483d d139 933b 8ed8 a33d
00000360: 1aed 6bbd fa67 a0bb 522a 4dbd b500 cf3c
00000370: 4f76 2ebd 3a43 92bd 0912 37bd a7df 9c3c
00000380: 0686 593d f6a2 343d 27db f2bb 3773 50bd
00000390: 8076 ba3c f20e 9e3d 0d0c a63c e9f6 90bd
000003a0: 2459 17bd 7555 00bd a682 2e3d b6cd aebc
000003b0: e1e7 1fbd e075 00bd d849 45bb 2661 79bd
000003c0: 0319 14bc a878 76bc d1f4 bebb 1949 233d
000003d0: d2c8 ee3b d77b a83d 83a7 a33d 8051 1fbd
000003e0: a009 ba3c 88a3 8bbd 048f 6d3d bc9c 553d
000003f0: 56a3 193d 8b12 15bd 30fd f63c 8334 99bd

bias f4 [16]
0.03243776 0.084014 -0.0110831335 -0.043161273 -0.055791788 0.03918951 0.078401506 -0.009770522
0.07627859 -0.048965592 -0.008594571 0.033135325 0.007767852 0.08472598 0.05185149 0.027959844
00000000: 75dd 043d 880f ac3d 0896 35bc e0c9 30bd
00000010: ee85 64bd 2e85 203d f890 a03d 8a14 20bc
00000020: f337 9c3d 2590 48bd 3ed0 0cbc e8b8 073d
00000030: 7789 fe3b d184 ad3d 3a62 543d 0b0c e53c

weight f4 [120, 896]
-0.00608076 0.011667101 -0.016857242 0.011190113 0.01876039 0.016512694 -0.031573694 0.0070115034
-0.029244427 -0.031097388 0.014418097 0.020351177 -0.0034454959 0.022032248 -0.008320751 -0.0024233246
-0.01372962 0.006036946 -0.029255316 -0.008868375 -0.0055828854 0.018355561 0.002839792 -0.007863768
-0.02839638 0.0139381755 -0.0069141183 -0.00869319 0.01302738 -0.008533473 -0.034253333 -0.022558259
0.024558691 -0.029742844 0.021498654 -0.02402941 -0.010126964 0.010567536 -0.0065371245 0.01929084
0.004270638 0.008598635 0.026766792 -0.015656002 -0.014893509 -0.0031633566 -0.013902914 -0.014564093
-0.018123379 0.024212725 -0.028914737 -0.015986184 0.012643756 -0.026965903 -0.0061036074 0.0030067568
-0.012557523 -0.021720083 -0.030976107 -0.007866074 -0.03254439 0.012768448 -0.03225646 0.0105510615
0.00019570092 -0.006457678 -0.025934989 0.024688538 0.010861718 0.019607453 0.027630763 0.016780522
0.031590674 -0.022046523 -0.009671677 -0.029560158 -0.014945511 -0.028914725 0.0046853926 -0.02057577
0.017043086 -0.033176094 -0.003482279 -0.01987352 0.019405475 -0.01901796 0.030445112 -0.004260283
0.020153208 -0.007963723 0.029375479 -0.019180337 0.019096557 -0.00803621 0.026560353 -0.016451709
0.01198271 0.004735884 0.0047485097 0.014694532 -0.020320589 0.0071177306 0.0051351767 0.019379374
-0.029914035 -0.006384016 0.0072461953 -0.020676222 -0.027583878 0.029180514 -0.021864614 0.021040685
-0.028895855 0.03168554 0.02742431 -0.016311986 -0.02214876 0.00903707 0.032075174 0.012295635
0.02865268 0.024984816 -0.025936607 -0.02542981 0.029270323 0.012988663 0.01994803 0.02491121
-0.015330563 -0.021646982 -0.006051309 0.005627413 0.029902183 -0.012045925 0.023834156 0.013148442
0.022409635 -0.01610953 -0.01656687 0.0035727178 0.0106432745 -0.027004285 -0.028363418 -0.019957488
-0.034090754 -0.016756244 -0.00036833264 -0.007639653 -0.006567471 0.012716369 0.004912153 -0.033951353
-0.02698998 -0.016701823 0.005727218 -0.031959906 -0.033115566 0.002400339 -0.0119003225 0.012399293
-0.001458458 0.017488578 -0.0047972864 -0.03243579 -0.020831497 0.027071493 -0.00086421415 0.014205212
-0.03389343 0.003415334 0.022539454 0.011878185 0.014296149 0.019334093 -0.016798783 0.032084096
-0.00941823 -0.013267191 0.031552665 -0.0055179903 0.016207201 0.004386019 -0.0031249188 0.014090876
-0.02506673 0.0044093397 -0.0032019727 -0.0336912 0.000338488 -0.013031769 0.021209398 0.0019123553
-0.0052157324 -0.0018134244 -0.0058487933 0.0095061315 -0.0077608037 -0.021298096 -0.0034054853 0.016545687
-0.009953795 -0.032846663 -0.00023075938 -0.027551048 -0.010305095 0.03185809 -0.020239733 -0.00010724788
-0.00831099 0.031376217 -0.008047618 -0.014021206 0.025432058 -0.007990061 -0.0075939703 -0.0058781467
-0.03412325 0.0010598248 0.0039642737 0.024059094 0.0114404075 0.012092701 0.02320828 -0.033682168
0.0027570873 -0.007213458 -0.014554233 0.021393182 -0.010875551 0.00292895 0.027003605 -0.02910722
0.031749092 -0.018494636 -0.028207606 0.028575022 0.024065759 0.017511647 -0.010299982 0.027310507
0.028757552 0.0032191821 -0.021872742 -0.029524881 -0.030864285 -0.031362273 0.01893125 0.005657537
0.0071591996 -0.02639044 0.006171348 0.009777665 -0.01450179 -0.012373998 0.024222642 -0.03129509
00000000: 1d41 c7bb 5e27 3f3c 3318 8abc bc56 373c
00000010: 64af 993c a145 873c 6b53 01bd c1c0 e53b
00000020: 0292 efbc f3bf febc e239 6c3c 83b7 a63c
00000030: d4cd 61bb f97c b43c c253 08bc a4d0 1ebb
00000040: 33f2 60bc 93d1 c53b d8a8 efbc a94c 11bc
00000050: a3f0 b6bb 675e 963c ce1b 3a3b 09d7 00bc
00000060: 869f e8bc f25c 643c d48f e2bb e26d 0ebc
00000070: cb70 553c fbcf 0bbc 394d 0cbd 19cc b8bc
00000080: 4f2f c93c 44a7 f3bc f21d b03c 53d9 c4bc
00000090: 91eb 25bc 7523 2d3c 6035 d6bb d307 9e3c
000000a0: b5f0 8b3b 4ae1 0c3c 0846 db3c 0441 80bc
000000b0: e803 74bc 5150 4fbb 0cc9 63bc 3c9e 6ebc
000000c0: 7b77 94bc c459 c63c 99de ecbc 75f5 82bc
000000d0: c227 4f3c 99e7 dcbc c500 c8bb 020d 453b
000000e0: 12be 4dbc 51ee b1bc 9bc1 fdbc b5e0 00bc
000000f0: 444d 05bd c132 513c 5a1f 04bd 5cde 2c3c
00000100: 1135 4d39 ee9a d3bb 9d75 d4bc 9e3f ca3c
00000110: 59f5 313c cf9f a03c e959 e23c 4e77 893c
00000120: 3965 013d e99a b4bc f475 1ebc 2528 f2bc
00000130: 04de 74bc 93de ecbc ec87 993b 848e a8bc
00000140: f19d 8b3c a8e3 07bd f236 64bb cbcd a2bc
00000150: 3bf8 9e3c 8ecb 9bbc 0768 f93c d899 8bbb
00000160: 5718 a53c 467a 02bc d8a4 f03c 1520 9dbc
00000170: 6270 9c3c 4faa 03bc 1995 d93c bcc5 86bc
00000180: 2153 443c 792f 9b3b 6399 9b3b 56c1 703c
00000190: 5d77 a6bc da3b e93b fc44 a83b 7ec1 9e3c
000001a0: 470e f5bc 0231 d1bb 7e71 ed3b 2e61 a9bc
000001b0: 96f7 e1bc f90b ef3c 6b1d b3bc 845d ac3c
000001c0: 00b7 ecbc b2c8 013d f2a8 e03c b7a0 85bc
000001d0: 5171 b5bc 3810 143c 4261 033d a273 493c
000001e0: 06b9 ea3c f5ac cc3c 0279 d4bc 2d52 d0bc
000001f0: 51c8 ef3c 67ce 543c 0d6a a33c 9812 cc3c
00000200: 0b2d 7bbc 0355 b1bc 0f4a c6bb 2966 b83b
00000210: 6cf5 f43c 455c 45bc d93f c33c 906c 573c
00000220: 6994 b73c 22f8 83bc 3fb7 87bc 4224 6a3b
00000230: 2161 2e3c 1738 ddbc 665a e8bc e37d a3bc
00000240: bfa2 0bbd 6444 89bc c51c c1b9 0e56 fabb
00000250: f133 d7bb 5158 503c 20f6 a03b 9310 0bbd
00000260: 171a ddbc 43d2 88bc 63ab bb3b 64e8 02bd
00000270: 30a4 07bd 024f 1d3b 92f9 42bc 6726 4b3c
00000280: bb29 bfba 3544 8f3c 8e32 9dbb 64db 04bd
00000290: d1a6 aabc 09c5 dd3c 6e8c 62ba fabc 683c
000002a0: d6d3 0abd ccd3 5f3b a9a4 b83c b89c 423c
000002b0: 653a 6a3c 8862 9e3c 9a9d 89bc 9d6a 033d
000002c0: eb4e 1abc a25e 59bc 5e3d 013d 42d0 b4bb
000002d0: f7c4 843c 98b8 8f3b 70cb 4cbb 6bdd 663c
000002e0: be58 cdbc 397c 903b 30d8 51bb c9ff 09bd
000002f0: 1777 b139 3383 55bc 55bf ad3c ffa7 fa3a
00000300: bce8 aabb 6db0 edba 3ca7 bfbb 9bbf 1b3c
00000310: 574e febb 5879 aebc 902e 5fbb d28a 873c
00000320: 3e15 23bc 398a 06bd 00f8 71b9 bcb2 e1bc
00000330: b4d6 28bc a17d 023d cccd a5bc 44ea e0b8
00000340: d22a 08bc 5984 003d 28da 03bc 33b9 65bc
00000350: e456 d03c bfe8 02bc d7d6 f8bb 789d c0bb
00000360: d2c4 0bbd d2e9 8a3a bde6 813b 9417 c53c
00000370: 8c70 3b3c 7720 463c 4a1f be3c 50f6 09bd
00000380: 40b0 343b df5e ecbb e174 6ebc c140 af3c
00000390: 5e2f 32bc a0f3 3f3b aa36 dd3c 4472 eebc
000003a0: 560b 023d 1082 97bc a313 e7bc 2a16 ea3c
000003b0: 8e25 c53c 9674 8f3c 41c1 28bc 49ba df3c
000003c0: f594 eb3c eaf8 523b 772e b3bc 2ade f1bc
000003d0: 19d7 fcbc ba75 00bd b515 9b3c dc62 b93b
000003e0: b897 ea3b c430 d8bc 0539 ca3b 8032 203c
000003f0: ea98 6dbc 4fbc 4abc 906e c63c 482f 00bd

bias f4 [120]
0.0021891033 0.0056780227 -0.031943634 0.015894467 0.004972707 0.034721598 0.013530833 0.017535284
0.0181244 -0.019342048 0.009747303 0.006104861 -0.012859922 -0.030955736 0.009122972 0.030666925
-0.0070237834 -0.019490017 -0.012865014 0.014555111 -0.0079947505 0.013471856 -0.016439218 -0.01655024
0.03598825 -0.0077946912 0.0066767856 -0.015383634 0.006414304 0.01482499 -0.022152752 -0.027872201
-0.0053373836 -0.022657001 -0.026697489 -0.012939441 -0.0108999405 -0.03397443 -0.017590242 0.03131207
-0.0042970493 0.013415685 -0.020265771 0.012688521 0.002195069 -0.021853589 0.0034728125 -0.03169496
-0.030031169 0.011701635 0.018574554 -0.02847755 0.023901053 -0.0027300213 0.00012717396 0.0052283113
-0.018310767 -0.00030912523 -0.032523092 -0.0192694 -0.0016933829 -0.0100311125 0.016594736 0.023392813
-0.014381633 0.010293177 0.028927036 0.007083268 -0.0037875322 0.012814554 0.01790584 -0.014270239
0.022416795 -0.0008443911 -0.005896585 -0.0016411128 0.0108345095 0.0045832573 -0.029827064 -0.008997429
0.02595958 0.015009838 0.010917119 -0.0008257766 -0.010512951 -0.009990641 -0.009180333 -0.029351912
-0.0062364684 0.0025154976 0.03647293 -0.030712524 -0.020746749 -0.02728134 -0.017371343 -0.021175774
-0.024637774 0.013549731 -0.009138763 0.007900526 0.002607417 0.016830923 0.022411818 0.0051351106
0.015524025 0.010774437 -0.030239817 -0.018614562 0.033683278 -0.018498652 -0.014117802 0.011242945
-0.013265621 0.008451711 -0.026133573 0.024400398 0.011743898 -0.009175926 0.02872333 -0.009818616
00000000: 0f77 0f3b b50e ba3b 54d7 02bd 1d35 823c
00000010: 17f2 a23b 3c38 0e3d 6db0 5d3c 28a6 8f3c
00000020: 9f79 943c 3773 9ebc 27b3 1f3c 490b c83b
00000030: 6cb2 52bc e296 fdbc 8578 153c 3439 fb3c
00000040: c427 e6bb 87a9 9fbc c8c7 52bc 8f78 6e3c
00000050: 6afc 02bc 0fb9 5c3c 8aab 86bc 5e94 87bc
00000060: 6a68 133d 9c6a ffbb f0c8 da3b a30b 7cbc
00000070: 152f d23b 84e4 723c b079 b5bc 3e54 e4bc
00000080: 38e5 aebb 2d9b b9bc b1b4 dabc f3ff 53bc
00000090: aa95 32bc c628 0bbd 6919 90bc 1641 003d
000000a0: 43ce 8cbb 76cd 5b3c 6704 a6bc 84e3 4f3c
000000b0: 26db 0f3b 4c06 b3bc 2098 633b 93d2 01bd
000000c0: ed03 f6bc 37b8 3f3c aa29 983c c049 e9bc
000000d0: 24cc c33c 28ea 32bb 005a 0539 4152 ab3b
000000e0: 7600 96bc 1612 a2b9 ef36 05bd dcda 9dbc
000000f0: 80f4 ddba 8959 24bc aff1 873c 49a2 bf3c
00000100: f1a0 6bbc b7a4 283c 64f8 ec3c c21a e83b
00000110: 3f38 78bb 23f4 513c 45af 923c b8cd 69bc
00000120: 6da3 b73c 215a 5dba 2438 c1bb 9c1a d7ba
00000130: 3a83 313c 262f 963b e357 f4bc f469 13bc
00000140: 2fa9 d43c d3eb 753c b7dd 323c ee78 58ba
00000150: 833e 2cbc c9af 23bc 1c69 16bc 6c73 f0bc
00000160: 4a5b ccbb 0cdb 243b a464 153d d598 fbbc
00000170: 16f5 a9bc 1e7d dfbc 594e 8ebc d178 adbc
00000180: 28d5 c9bc b1ff 5d3c c0ba 15bc 3571 013c
00000190: 33e1 2a3b 01e1 893c fd98 b73c 6e44 a83b
000001a0: 7b58 7e3c 4487 303c 7eb9 f7bc 917d 98bc
000001b0: 7af7 093d 7c8a 97bc 5a4e 67bc 5434 383c
000001c0: 0c58 59bc 0c79 0a3c 1316 d6bc 58e3 c73c
000001d0: 7a69 403c a056 16bc 304d eb3c 43de 20bc

weight f4 [84, 120]
-0.017901149 0.0379123 -0.0027681217 0.08644457 0.06478191 0.046105247 -0.010417279 0.011290226
0.011278151 0.046134092 -0.04713384 0.08147475 0.033974573 0.030342795 0.027823072 -0.03527043
0.054362494 0.0837742 -0.039602116 0.07186141 -0.012415208 -0.072931975 0.074262366 -0.008478418
0.012110277 0.034169108 -0.039802395 0.048342135 -0.029773658 0.06905902 -0.058231268 -0.022297373
-0.028065192 -0.0061675054 -0.0028064698 -0.077663966 0.08773264 -0.05956576 0.078533724 0.079353265
-0.02265068 0.09164957 -0.07211355 -0.001780622 0.064479716 0.047283076 0.07904771 0.062219575
-0.013915874 0.07141976 -0.08841871 -0.07631778 0.03454585 0.08603516 -0.03646037 -0.078391664
0.07925141 -0.027495839 -0.023486182 -0.04507526 0.030574746 -0.045628786 -0.019899411 0.059505794
0.02957482 -0.0700383 -0.037485514 0.0046512075 -0.08203369 -0.08609168 -0.033536024 0.03462507
-0.04458331 0.037587564 -0.025924489 0.06770604 -0.03158979 -0.08571605 -0.06570644 0.008813199
0.0044070515 0.0032806422 -0.0032580777 0.068450324 -0.05802757 0.010319403 -0.07641855 -0.030520622
0.08317317 0.011874313 -0.031166097 0.06766109 -0.050930385 -0.038465258 0.070657425 -0.059786376
0.043753013 -0.047359034 -0.03454216 0.05778844 -0.022511343 -0.08871076 0.009311468 -0.0069215763
0.0089948615 -0.0047564395 0.06693329 0.03800934 0.08888454 0.077959254 0.015256628 0.057088915
-0.06309772 -0.008404292 -0.051762596 0.049171917 0.06290905 -0.023959702 0.016868154 0.05240432
0.012550746 0.016928036 -0.027542047 -0.026078368 -0.052694283 0.034502313 0.0058540856 -0.030970868
-0.052824643 0.009200663 -0.0006376421 -0.016377473 -0.047261976 0.0597378 0.06171355 -0.075360395
-0.07940605 0.021301001 0.07133455 0.07375159 -0.07605915 0.026894877 0.030495077 0.054889422
0.028599355 -0.024834024 0.07994538 -0.054248933 -0.032762524 0.07743964 0.027098337 0.08672355
-0.08979039 0.084018804 0.07771224 -0.058191508 -0.013925347 0.0777203 -0.04606914 -0.050178144
-0.04443254 -0.08431744 -0.01477772 0.07602758 0.07509911 0.08072168 -0.025783457 -0.07960744
0.019825056 -0.063435495 -0.09224303 -0.04010396 0.009054869 0.03581743 -0.07536966 -0.056924626
0.064703286 0.0045562447 -0.056305353 0.06017515 0.031394005 0.038552076 -0.050053876 0.058486216
-0.0051628393 -0.08402529 0.08144113 0.06752652 0.07682173 -0.006629713 -0.020711945 0.021972463
0.076859064 0.08021416 -0.04124759 0.0017133219 -0.0651785 -0.053296275 0.06655645 0.0020970735
0.014871976 0.0315289 -0.07915685 0.015899139 0.06242743 0.03793462 -0.068035014 0.004592517
-0.05436731 0.042255 0.011811155 0.072473794 -0.07523949 0.042318992 0.023698939 -0.04319584
-0.08524062 0.077692695 -0.061393443 0.024024261 0.031116175 -0.07909631 0.06392291 0.009476774
-0.03280293 0.013168217 -0.067199975 0.03759641 -0.07181326 -0.06792525 0.04339707 0.05571563
0.05014639 -0.008124344 -0.026528861 0.007362411 0.0040905154 -0.073072135 0.039551575 -0.056245774
0.018562004 0.057507694 0.017087288 -0.088711664 -0.0031392947 -0.04550841 -0.035866447 0.066479936
-0.055188634 -0.010566279 0.038181514 0.009340413 0.033894375 -0.026578888 0.046424195 0.0036855116
00000000: 6ea5 92bc ee49 1b3d 6069 35bb da09 b13d
00000010: 61ac 843d dbd8 3c3d 3cad 2abc a4fa 383c
00000020: fec7 383c 1af7 3c3d 6a0f 41bd 3cdc a63d
00000030: ec28 0b3d 7491 f83c 36ed e33c ba77 10bd
00000040: 35ab 5e3d cf91 ab3d d435 22bd 132c 933d
00000050: 2869 4bbc 5c5d 95bd de16 983d 10e9 0abc
00000060: 2f6a 463c e8f4 0b3d d607 23bd 6702 463d
00000070: e3e7 f3bc d16e 8d3d e983 6ebd fba8 b6bc
00000080: f9e8 e5bc c918 cabb c0ec 37bb 490e 9fbd
00000090: 2cad b33d 3afb 73bd 4ad6 a03d f783 a23d
000000a0: eb8d b9bc c5b2 bb3d 45b0 93bd c363 e9ba
000000b0: f10d 843d e6ab 413d c4e3 a13d f4d9 7e3d
000000c0: 68ff 63bc 8644 923d de14 b5bd 7f4c 9cbd
000000d0: f37f 0d3d 3433 b03d 7857 15bd cf8b a0bd
000000e0: 904e a23d f43e e1bc 1866 c0bc d6a0 38bd
000000f0: e477 fa3c 40e5 3abd 1704 a3bc 59bc 733d
00000100: e546 f23c 3d70 8fbd 698a 19bd 2869 983b
00000110: 4701 a8bd d650 b0bd 125d 09bd 04d3 0d3d
00000120: fd9c 36bd 6bf5 193d 985f d4bc 77a9 8a3d
00000130: 4c64 01bd e58b afbd 1991 86bd 3c65 103c
00000140: 0769 903b 0b00 573b 7985 55bb af2f 8c3d
00000150: 51ae 6dbd b712 293c 5481 9cbd 6206 fabc
00000160: b256 aa3d 7a8c 423c 0b50 ffbc e691 8a3d
00000170: 619c 50bd bf8d 1dbd d7b4 903d 8fe2 74bd
00000180: 5c36 333d 8cfb 41bd 147c 0dbd 92b3 6c3d
00000190: b569 b8bc fdad b5bd 218f 183c 64ce e2bb
000001a0: 2f5f 133c e8db 9bbb 5214 893d afaf 1b3d
000001b0: 1909 b63d 1aa9 9f3d f0f6 793c 11d6 693d
000001c0: 6139 81bd 28b2 09bc 0405 54bd 7e68 493d
000001d0: 76d6 803d 2347 c4bc 152f 8a3c eaa5 563d
000001e0: a5a1 4d3c aaac 8a3c dc9f e1bc 4da2 d5bc
000001f0: f6d5 57bd 4c52 0d3d a1d3 bf3b 9eb6 fdbc
00000200: a75e 58bd 61be 163c 7027 27ba 0d2a 86bc
00000210: c695 41bd a0af 743d 59c7 7c3d 8d56 9abd
00000220: a49f a2bd 707f ae3c d917 923d 130b 973d
00000230: e6c4 9bbd a552 dc3c d0d0 f93c bbd3 603d
00000240: 3249 ea3c b970 cbbc 67ba a33d 2134 5ebd
00000250: ff31 06bd ad98 9e3d 55fd dd3c 1e9c b13d
00000260: 06e4 b7bd 0d12 ac3d 9827 9f3d 385a 6ebd
00000270: 2327 64bc d22b 9f3d ffb2 3cbd 9987 4dbd
00000280: e5fe 35bd 9fae acbd 401e 72bc 59b4 9b3d
00000290: 90cd 993d 6851 a53d d437 d3bc 3a09 a3bd
000002a0: 2868 a23c 78ea 81bd eae9 bcbd 0d44 24bd
000002b0: e05a 143c 4cb5 123d 695b 9abd cc29 69bd
000002c0: 2883 843d 8d4c 953b 71a0 66bd 387a 763d
000002d0: 0097 003d c8e8 1d3d 4b05 4dbd 3e8f 6f3d
000002e0: 092d a9bb 7415 acbd 9bca a63d 584b 8a3d
000002f0: b654 9d3d 103e d9bb 19ac a9bc 98ff b33c
00000300: 4968 9d3d 5247 a43d 3cf3 28bd 8b91 e03a
00000310: 4e7c 85bd 324d 5abd c04e 883d 0e6f 093b
00000320: 97a9 733c 7324 013d fd1c a2bd e93e 823c
00000330: e8b3 7f3d 5561 1b3d f155 8bbd d37c 963b
00000340: 42b0 5ebd 9413 2d3d 9383 413c 246d 943d
00000350: 2917 9abd ae56 2d3d 4724 c23c 1fee 30bd
00000360: a292 aebd 591d 9f3d b177 7bbd 87ce c43c
00000370: 59e7 fe3c 3ffd a1bd 04ea 823d 7944 1b3c
00000380: 5d5c 06bd 81bf 573c 24a0 89bd b1fe 193d
00000390: d512 93bd 651c 8bbd 20c1 313d 1336 643d
000003a0: 4d66 4d3d f81b 05bc 0e53 d9bc 6140 f13b
000003b0: bb09 863b d8a6 95bd d500 223d f861 66bd
000003c0: 580f 983c 308d 6b3d a4fa 8b3c 76ae b5bd
000003d0: a0bc 4dbb 0767 3abd b2e8 12bd a226 883d
000003e0: 7a0d 62bd 301e 2dbc 3864 1c3d 8808 193c
000003f0: d4d4 0a3d f8bb d9bc 4c27 3e3d a088 713b

bias f4 [84]
0.009620349 -0.002908407 -0.0854937 0.03524121 0.018042881 -0.027930345 0.059882984 -0.06749281
0.021079883 -0.073636144 0.07454937 0.04375116 0.037160568 -0.07126971 0.04149152 0.021174923
0.01287348 0.07395103 -0.0699202 -0.04083551 -0.05299341 0.012265648 0.09393938 -0.017663062
0.07094341 0.06515921 0.079442754 0.04987423 0.045547683 -0.017346315 -0.087946445 -0.07966196
0.082567275 0.0041325837 -0.07784021 0.09044908 -0.051798306 -0.07665639 0.0032546378 -0.010982029
-0.082278475 -0.06893766 0.041373435 0.0699217 -0.060632348 0.013607143 0.086749166 -0.0019851306
0.08889989 0.05924195 0.076875426 0.024218496 -0.025436617 -0.07678784 -0.064614445 0.018787365
0.073446505 -0.077625014 -0.046772674 0.06760464 0.05999688 0.018903553 -0.090582594 0.022082143
0.07102375 0.034009814 0.011777858 -0.07842645 0.083152585 0.048414934 0.07477923 -0.08447209
-0.06691975 0.06434974 -0.047050633 0.051884104 -0.06237669 0.08989111 -0.047655504 -0.010947766
-0.08423363 0.036116116 0.08838838 0.07295127
00000000: ab9e 1d3c f99a 3ebb 5217 afbd 1659 103d
00000010: aace 933c 2ece e4bc dc47 753d ac39 8abd
00000020: b8af ac3c 8cce 96bd 57ad 983d 6b34 333d
00000030: ae35 183d dbf5 91bd 03f3 293d 0877 ad3c
00000040: 4aeb 523c a373 973d 5232 8fbd 2343 27bd
00000050: 9e0f 59bd dbf5 483c 4a63 c03d 20b2 90bc
00000060: c74a 913d 3172 853d e2b2 a23d ec48 4c3d
00000070: 3590 3a3d dc19 8ebc 441d b4bd cf25 a3bd
00000080: 0819 a93d a06a 873b b06a 9fbd 5e3d b93d
00000090: 762a 54bd 07fe 9cbd c34b 553b f8ed 33bc
000000a0: 9e81 a8bd 302f 8dbd 3177 293d 1c33 8f3d
000000b0: a059 78bd 7ff0 5e3c 8ca9 b13d f718 02bb
000000c0: 2511 b63d b0a7 723d dd70 9d3d de65 c63c
000000d0: 7460 d0bc f142 9dbd 9454 84bd f6e7 993c
000000e0: 1f6b 963d ddf9 9ebd b494 3fbd 4d74 8a3d
000000f0: 4abf 753d a0db 9a3c 5e83 b9bd 9ce5 b43c
00000100: e674 913d e04d 0b3d ebf7 403c 0c9e a0bd
00000110: e74b aa3d bd4e 463d da25 993d b4ff acbd
00000120: 390d 89bd ccc9 833d 2ab8 40bd 6d84 543d
00000130: b37e 7fbd d518 b83d 6b32 43bd 425e 33bc
00000140: ae82 acbd 7eee 133d f804 b53d 7a67 953d

weight f4 [6, 84]
-0.062330812 0.099968836 0.019762136 0.0022016987 0.043536276 0.015712615 0.016780792 -0.005214538
0.09718319 0.10575112 0.081019305 0.07940114 0.055598494 0.06435902 -0.0776435 0.021077314
0.062337704 0.10340174 -0.077828616 0.008095943 -0.0074267015 0.017705442 -0.020956328 0.009711648
0.007955573 0.0011968886 -0.039252523 0.021129971 0.04518652 0.0738041 0.024903543 0.06918802
0.014824015 0.02828632 0.0636278 -0.08482176 -0.024289683 0.033832632 0.09261425 -0.0034114271
0.08622327 0.07609121 -0.0038100989 0.016806215 0.03540466 0.09103678 0.036961164 0.04577195
0.038266465 0.0023012427 0.043933917 0.064890176 -0.05806042 0.07140895 0.09479449 0.0077290423
-0.078205206 0.03357009 -0.059857935 -0.10245598 0.07335132 -0.033345092 0.05573214 -0.09882513
-0.042994287 0.06657706 0.05531112 0.030966751 0.048510667 -0.10197201 -0.07468361 -0.042447
-0.008091125 0.06774199 0.06881813 -0.08652675 -0.07823027 0.015408547 0.079228945 0.047967684
-0.08641731 0.08446817 -0.07212026 0.04833911 0.060765024 -0.08910331 0.016275264 0.023801206
-0.072187945 -0.04099355 0.033931416 0.08542956 0.05332041 0.0368369 0.011965072 0.051606756
0.026512362 -0.057419337 0.011875286 0.0690215 -0.051437248 -0.08206842 0.0649877 -8.701888e-05
-0.094816335 -0.085517466 -0.0851264 0.06839325 -0.1010065 0.04740692 0.012091111 0.10632009
-0.035097443 0.07460945 -0.01693561 -0.032432258 0.09824778 -0.0437527 -0.10717128 -0.013635991
-0.094687164 -0.0022994876 0.05737108 -0.07140429 -0.03250286 0.023504384 0.1040899 0.0577831
0.08254168 0.10752605 0.105314516 0.10845374 0.024850821 0.10677404 -0.06624752 0.032350283
-0.038315754 0.040716983 0.03138203 -0.03863015 0.013442787 -0.052408624 -0.06711175 0.04781229
0.103962556 -0.09511507 -0.0019516349 0.1008035 0.026950354 -0.0017481641 -0.015329056 0.094282575
-0.093097545 -0.0068425615 0.018821636 0.04208649 -0.10300009 0.107180715 0.0047645867 -0.07007571
0.10829846 -0.010275927 -0.048868082 0.05623735 -0.04275746 0.008331981 -0.04855158 -0.06581167
0.10665598 0.0545352 0.049251996 0.054747175 0.10297292 -0.03001289 -0.08287627 0.03446198
0.031700734 0.007830873 -0.081940845 0.035110295 -0.017119123 0.09273217 0.0316698 0.078117706
-0.018944096 0.059004523 0.020255424 -0.040179253 -0.0985506 -0.09230408 -0.01869523 0.046448007
-0.029196048 -0.08239406 -0.009366359 -0.021665357 -0.061821 0.09946408 -0.08620846 0.0048474297
-0.039590735 0.09252342 -0.05737613 0.10882452 -0.046818588 -0.09486936 -0.0662704 0.033265956
0.034656234 -0.0024247915 0.031325385 0.08483531 -0.046983164 0.0020027286 -0.05521367 0.103835225
0.0058132717 0.10604166 -0.0010893266 -0.06309917 0.08540079 -0.08355903 -0.108163655 0.008361516
-0.03771355 -0.047481533 -0.020464785 0.036795516 -0.0933529 -0.04975057 -0.014980383 -0.059206333
0.0134507185 0.09064875 0.022920553 -0.106759265 -0.09024694 0.06703246 -0.0934063 0.016768984
-0.10961349 0.07590763 0.05955019 0.09178776 0.050448142 0.022168027 0.10703216 -0.06275795
0.004695311 0.059776727 -0.05857801 -0.07251261 -0.044310857 -0.052775137 0.011105567 -0.09998031
00000000: 984e 7fbd 76bc cc3d 34e4 a13c 604a 103b
00000010: 1853 323d beb7 803c df77 893c b7de aabb
00000020: fb07 c73d 0b94 d83d 73ed a53d 119d a23d
00000030: 3fbb 633d a9ce 833d 8e03 9fbd 55aa ac3c
00000040: d255 7f3d 4bc4 d33d 9c64 9fbd d9a4 043c
00000050: b05b f3bb 010b 913c 9bac abbc 9b1d 1f3c
00000060: 1758 023c ebe0 9c3a 41c7 20bd c318 ad3c
00000070: 8015 393d 9b26 973d 8402 cc3c 73b2 8d3d
00000080: 6de0 723c b6b8 e73c 4b4f 823d 08b7 adbd
00000090: 28fb c6bc 1694 0a3d 8aac bd3d 4092 5fbb
000000a0: d395 b03d b5d5 9b3d dab2 79bb 30ad 893c
000000b0: 7a04 113d 7e71 ba3d 9764 173d 5e7b 3b3d
000000c0: 4cbd 1c3d 72d0 163b 0df4 333d 24e5 843d
000000d0: c3d0 6dbd db3e 923d 9d23 c23d e843 fd3b
000000e0: 0d2a a0bd ca80 093d 982d 75bd 71d4 d1bd
000000f0: 3839 963d dd94 08bd 6247 643d d464 cabd
00000100: c71a 30bd 8e59 883d ea8d 623d fcad fd3c
00000110: 1fb3 463d b4d6 d0bd b8f3 98bd e8dc 2dbd
00000120: a390 04bc 50bc 8a3d 85f0 8c3d f034 b1bd
00000130: 3137 a0bd 2174 7c3c c942 a23d c379 443d
00000140: 8ffb b0bd a6fd ac3d c9b3 93bd 3bff 453d
00000150: bfe4 783d cc7b b6bd b453 853c bffa c23c
00000160: 46d7 93bd dae8 27bd abfb 0a3d b1f5 ae3d
00000170: 8166 5a3d 4ae2 163d 2609 443c 9b61 533d
00000180: 7430 d93c 8a30 6bbd 8f90 423c 255b 8d3d
00000190: ddaf 52bd 7d13 a8bd 4518 853d e87d b6b8
000001a0: 112f c2bd c823 afbd c056 aebd c311 8c3d
000001b0: 7fdc cebd c22d 423d cc19 463c 59be d93d
000001c0: 56c2 0fbd d7cc 983d 8cbc 8abc b0d7 04bd
000001d0: 2236 c93d 0836 33bd 9e7c dbbd 7e69 5fbc
000001e0: 58eb c1bd 00b3 16bb f0fd 6a3d 6a3c 92bd
000001f0: b821 05bd 448c c03c 162d d53d f9ad 6c3d
00000200: 9d0b a93d 9e36 dc3d 23af d73d ff1c de3d
00000210: f393 cb3c 59ac da3d c8ac 87bd bb81 043d
00000220: fbf0 1cbd dac6 263d 728a 003d a63a 1ebd
00000230: 233f 5c3c 6daa 56bd e371 89bd d2d6 433d
00000240: 52ea d43d b1cb c2bd 00ce ffba 1172 ce3d
00000250: fdc6 dc3c a722 e5ba b926 7bbc 3917 c13d
00000260: eda9 bebd 9137 e0bb d52f 9a3c e262 2c3d
00000270: b6f1 d2bd 9081 db3d 4020 9c3b db83 8fbd
00000280: 95cb dd3d 5d5c 28bc e629 48bd 2359 663d
00000290: 7222 2fbd dc82 083c 06de 46bd 45c8 86bd
000002a0: 736e da3d 4d60 5f3d 76bc 493d 933e 603d
000002b0: 77e3 d23d 98dd f5bc 09bb a9bd 0128 0d3d
000002c0: a1d8 013d 104d 003c 9ad0 a7bd d0cf 0f3d
000002d0: 673d 8cbc 5dea bd3d 31b8 013d 2dfc 9f3d
000002e0: a630 9bbc baae 713d b4ee a53c 0093 24bd
000002f0: e6d4 c9bd ec09 bdbd bd26 99bc 4440 3e3d
00000300: 8d2c efbc 38be a8bd 5b75 19bc 8c7b b1bc
00000310: 0438 7dbd d3b3 cb3d 108e b0bd 30d7 9e3b
00000320: e529 22bd eb7c bd3d 3c03 6bbd 64df de3d
00000330: d9c4 3fbd de4a c2bd c7b8 87bd e241 083d
00000340: b2f3 0d3d 40e9 1ebb 0c4f 003d 23be ad3d
00000350: 6b71 40bd 3640 033b bb27 62bd 90a7 d43d
00000360: 427d be3b 5f2c d93d bcc7 8eba 233a 81bd
00000370: 9ce6 ae3d ff20 abbd e884 ddbd bdfe 083c
00000380: 8679 1abd ff7b 42bd c4a5 a7bc e5b6 163d
00000390: ce2f bfbd 41c7 4bbd 4870 75bc 5782 72bd
000003a0: 6760 5c3c 0da6 b93d e2c3 bb3c 9aa4 dabd
000003b0: 63d3 b8bd 5048 893d cd4b bfbd 1c5f 893c
000003c0: 0a7d e0bd 7675 9b3d e6ea 733d 39fb bb3d
000003d0: b6a2 4e3d b999 b53c ad33 db3d 3d87 80bd
000003e0: 20db 993b 71d8 743d 7fef 6fbd 7e81 94bd
000003f0: 4d7f 35bd be2a 58bd 20f4 353c 7ac2 ccbd

bias f4 [6]
0.04699383 -0.06664387 -0.06251795 0.034655187 -0.07929847 -0.014875963
00000000: 9a7c 403d 957c 88bd 6909 80bd 99f2 0d3d
00000010: 3c67 a2bd 50ba 73bc
